…
I0630 16:07:12.243216 31778 net.cpp:296] The NetState phase (0) differed from the phase (1) specified by a rule in layer accuracy
I0630 16:07:12.243350 31778 net.cpp:53] Initializing net from parameters: 
name: "AlexNet"
state {
  phase: TRAIN
  level: 0
  stage: ""
}
layer {
  name: "data"
  type: "Data"
  top: "data"
  top: "label"
  include {
    phase: TRAIN
  }
  transform_param {
    mirror: true
    crop_size: 227
    mean_file: "/home/dell/deep/input/mean.binaryproto"
  }
  data_param {
    source: "/home/dell/deep/input/train_lmdb"
    batch_size: 128
    backend: LMDB
  }
}
layer {
  name: "conv1"
  type: "Convolution"
  bottom: "data"
  top: "conv1"
  param {
    lr_mult: 1
    decay_mult: 1
  }
  param {
    lr_mult: 2
    decay_mult: 0
  }
  convolution_param {
    num_output: 96
    kernel_size: 11
    stride: 4
    weight_filler {
      type: "gaussian"
      std: 0.01
    }
    bias_filler {
      type: "constant"
      value: 0
    }
  }
}
layer {
  name: "relu1"
  type: "ReLU"
  bottom: "conv1"
  top: "conv1"
}
layer {
  name: "norm1"
  type: "LRN"
  bottom: "conv1"
  top: "norm1"
  lrn_param {
    local_size: 5
    alpha: 0.0001
    beta: 0.75
  }
}
layer {
  name: "pool1"
  type: "Pooling"
  bottom: "norm1"
  top: "pool1"
  pooling_param {
    pool: MAX
    kernel_size: 3
    stride: 2
  }
}
layer {
  name: "conv2"
  type: "Convolution"
  bottom: "pool1"
  top: "conv2"
  param {
    lr_mult: 1
    decay_mult: 1
  }
  param {
    lr_mult: 2
    decay_mult: 0
  }
  convolution_param {
    num_output: 256
    pad: 2
    kernel_size: 5
    group: 2
    weight_filler {
      type: "gaussian"
      std: 0.01
    }
    bias_filler {
      type: "constant"
      value: 0.1
    }
  }
}
layer {
  name: "relu2"
  type: "ReLU"
  bottom: "conv2"
  top: "conv2"
}
layer {
  name: "norm2"
  type: "LRN"
  bottom: "conv2"
  top: "norm2"
  lrn_param {
    local_size: 5
    alpha: 0.0001
    beta: 0.75
  }
}
layer {
  name: "pool2"
  type: "Pooling"
  bottom: "norm2"
  top: "pool2"
  pooling_param {
    pool: MAX
    kernel_size: 3
    stride: 2
  }
}
layer {
  name: "conv3"
  type: "Convolution"
  bottom: "pool2"
  top: "conv3"
  param {
    lr_mult: 1
    decay_mult: 1
  }
  param {
    lr_mult: 2
    decay_mult: 0
  }
  convolution_param {
    num_output: 384
    pad: 1
    kernel_size: 3
    weight_filler {
      type: "gaussian"
      std: 0.01
    }
    bias_filler {
      type: "constant"
      value: 0
    }
  }
}
layer {
  name: "relu3"
  type: "ReLU"
  bottom: "conv3"
  top: "conv3"
}
layer {
  name: "conv4"
  type: "Convolution"
  bottom: "conv3"
  top: "conv4"
  param {
    lr_mult: 1
    decay_mult: 1
  }
  param {
    lr_mult: 2
    decay_mult: 0
  }
  convolution_param {
    num_output: 384
    pad: 1
    kernel_size: 3
    group: 2
    weight_filler {
      type: "gaussian"
      std: 0.01
    }
    bias_filler {
      type: "constant"
      value: 0.1
    }
  }
}
layer {
  name: "relu4"
  type: "ReLU"
  bottom: "conv4"
  top: "conv4"
}
layer {
  name: "conv5"
  type: "Convolution"
  bottom: "conv4"
  top: "conv5"
  param {
    lr_mult: 1
    decay_mult: 1
  }
  param {
    lr_mult: 2
    decay_mult: 0
  }
  convolution_param {
    num_output: 256
    pad: 1
    kernel_size: 3
    group: 2
    weight_filler {
      type: "gaussian"
      std: 0.01
    }
    bias_filler {
      type: "constant"
      value: 0.1
    }
  }
}
layer {
  name: "relu5"
  type: "ReLU"
  bottom: "conv5"
  top: "conv5"
}
layer {
  name: "pool5"
  type: "Pooling"
  bottom: "conv5"
  top: "pool5"
  pooling_param {
    pool: MAX
    kernel_size: 3
    stride: 2
  }
}
layer {
  name: "fc6"
  type: "InnerProduct"
  bottom: "pool5"
  top: "fc6"
  param {
    lr_mult: 1
    decay_mult: 1
  }
  param {
    lr_mult: 2
    decay_mult: 0
  }
  inner_product_param {
    num_output: 4096
    weight_filler {
      type: "gaussian"
      std: 0.005
    }
    bias_filler {
      type: "constant"
      value: 0.1
    }
  }
}
layer {
  name: "relu6"
  type: "ReLU"
  bottom: "fc6"
  top: "fc6"
}
layer {
  name: "drop6"
  type: "Dropout"
  bottom: "fc6"
  top: "fc6"
  dropout_param {
    dropout_ratio: 0.5
  }
}
layer {
  name: "fc7"
  type: "InnerProduct"
  bottom: "fc6"
  top: "fc7"
  param {
    lr_mult: 1
    decay_mult: 1
  }
  param {
    lr_mult: 2
    decay_mult: 0
  }
  inner_product_param {
    num_output: 4096
    weight_filler {
      type: "gaussian"
      std: 0.005
    }
    bias_filler {
      type: "constant"
      value: 0.1
    }
  }
}
layer {
  name: "relu7"
  type: "ReLU"
  bottom: "fc7"
  top: "fc7"
}
layer {
  name: "drop7"
  type: "Dropout"
  bottom: "fc7"
  top: "fc7"
  dropout_param {
    dropout_ratio: 0.5
  }
}
layer {
  name: "fc8"
  type: "InnerProduct"
  bottom: "fc7"
  top: "fc8"
  param {
    lr_mult: 1
    decay_mult: 1
  }
  param {
    lr_mult: 2
    decay_mult: 0
  }
  inner_product_param {
    num_output: 2
    weight_filler {
      type: "gaussian"
      std: 0.01
    }
    bias_filler {
      type: "constant"
      value: 0
    }
  }
}
layer {
  name: "loss"
  type: "SoftmaxWithLoss"
  bottom: "fc8"
  bottom: "label"
  top: "loss"
}
I0630 16:07:12.245007 31778 layer_factory.hpp:77] Creating layer data
I0630 16:07:12.245102 31778 db_lmdb.cpp:35] Opened lmdb /home/dell/deep/input/train_lmdb
I0630 16:07:12.245136 31778 net.cpp:86] Creating Layer data
I0630 16:07:12.245155 31778 net.cpp:382] data -> data
I0630 16:07:12.245184 31778 net.cpp:382] data -> label
I0630 16:07:12.245206 31778 data_transformer.cpp:25] Loading mean file from: /home/dell/deep/input/mean.binaryproto
I0630 16:07:12.246542 31778 data_layer.cpp:45] output data size: 128,3,227,227
I0630 16:07:12.246632 31778 net.cpp:124] Setting up data
I0630 16:07:12.246655 31778 net.cpp:131] Top shape: 128 3 227 227 (19787136)
I0630 16:07:12.246670 31778 net.cpp:131] Top shape: 128 (128)
I0630 16:07:12.246683 31778 net.cpp:139] Memory required for data: 79149056
I0630 16:07:12.246698 31778 layer_factory.hpp:77] Creating layer conv1
I0630 16:07:12.246721 31778 net.cpp:86] Creating Layer conv1
I0630 16:07:12.246738 31778 net.cpp:408] conv1 <- data
I0630 16:07:12.246758 31778 net.cpp:382] conv1 -> conv1
I0630 16:07:12.247087 31778 net.cpp:124] Setting up conv1
I0630 16:07:12.247107 31778 net.cpp:131] Top shape: 128 96 55 55 (37171200)
I0630 16:07:12.247120 31778 net.cpp:139] Memory required for data: 227833856
I0630 16:07:12.247143 31778 layer_factory.hpp:77] Creating layer relu1
I0630 16:07:12.247159 31778 net.cpp:86] Creating Layer relu1
I0630 16:07:12.247172 31778 net.cpp:408] relu1 <- conv1
I0630 16:07:12.247187 31778 net.cpp:369] relu1 -> conv1 (in-place)
I0630 16:07:12.247203 31778 net.cpp:124] Setting up relu1
I0630 16:07:12.247218 31778 net.cpp:131] Top shape: 128 96 55 55 (37171200)
I0630 16:07:12.247231 31778 net.cpp:139] Memory required for data: 376518656
I0630 16:07:12.247243 31778 layer_factory.hpp:77] Creating layer norm1
I0630 16:07:12.247259 31778 net.cpp:86] Creating Layer norm1
I0630 16:07:12.247272 31778 net.cpp:408] norm1 <- conv1
I0630 16:07:12.247292 31778 net.cpp:382] norm1 -> norm1
I0630 16:07:12.247310 31778 net.cpp:124] Setting up norm1
I0630 16:07:12.247325 31778 net.cpp:131] Top shape: 128 96 55 55 (37171200)
I0630 16:07:12.247344 31778 net.cpp:139] Memory required for data: 525203456
I0630 16:07:12.247356 31778 layer_factory.hpp:77] Creating layer pool1
I0630 16:07:12.247372 31778 net.cpp:86] Creating Layer pool1
I0630 16:07:12.247385 31778 net.cpp:408] pool1 <- norm1
I0630 16:07:12.247400 31778 net.cpp:382] pool1 -> pool1
I0630 16:07:12.247422 31778 net.cpp:124] Setting up pool1
I0630 16:07:12.247438 31778 net.cpp:131] Top shape: 128 96 27 27 (8957952)
I0630 16:07:12.247452 31778 net.cpp:139] Memory required for data: 561035264
I0630 16:07:12.247464 31778 layer_factory.hpp:77] Creating layer conv2
I0630 16:07:12.247480 31778 net.cpp:86] Creating Layer conv2
I0630 16:07:12.247494 31778 net.cpp:408] conv2 <- pool1
I0630 16:07:12.247509 31778 net.cpp:382] conv2 -> conv2
I0630 16:07:12.250268 31778 net.cpp:124] Setting up conv2
I0630 16:07:12.250291 31778 net.cpp:131] Top shape: 128 256 27 27 (23887872)
I0630 16:07:12.250305 31778 net.cpp:139] Memory required for data: 656586752
I0630 16:07:12.250321 31778 layer_factory.hpp:77] Creating layer relu2
I0630 16:07:12.250336 31778 net.cpp:86] Creating Layer relu2
I0630 16:07:12.250350 31778 net.cpp:408] relu2 <- conv2
I0630 16:07:12.250365 31778 net.cpp:369] relu2 -> conv2 (in-place)
I0630 16:07:12.250380 31778 net.cpp:124] Setting up relu2
I0630 16:07:12.250394 31778 net.cpp:131] Top shape: 128 256 27 27 (23887872)
I0630 16:07:12.250406 31778 net.cpp:139] Memory required for data: 752138240
I0630 16:07:12.250419 31778 layer_factory.hpp:77] Creating layer norm2
I0630 16:07:12.250433 31778 net.cpp:86] Creating Layer norm2
I0630 16:07:12.250447 31778 net.cpp:408] norm2 <- conv2
I0630 16:07:12.250461 31778 net.cpp:382] norm2 -> norm2
I0630 16:07:12.250478 31778 net.cpp:124] Setting up norm2
I0630 16:07:12.250494 31778 net.cpp:131] Top shape: 128 256 27 27 (23887872)
I0630 16:07:12.250506 31778 net.cpp:139] Memory required for data: 847689728
I0630 16:07:12.250519 31778 layer_factory.hpp:77] Creating layer pool2
I0630 16:07:12.250535 31778 net.cpp:86] Creating Layer pool2
I0630 16:07:12.250547 31778 net.cpp:408] pool2 <- norm2
I0630 16:07:12.250561 31778 net.cpp:382] pool2 -> pool2
I0630 16:07:12.250578 31778 net.cpp:124] Setting up pool2
I0630 16:07:12.250593 31778 net.cpp:131] Top shape: 128 256 13 13 (5537792)
I0630 16:07:12.250605 31778 net.cpp:139] Memory required for data: 869840896
I0630 16:07:12.250618 31778 layer_factory.hpp:77] Creating layer conv3
I0630 16:07:12.250634 31778 net.cpp:86] Creating Layer conv3
I0630 16:07:12.250648 31778 net.cpp:408] conv3 <- pool2
I0630 16:07:12.250663 31778 net.cpp:382] conv3 -> conv3
I0630 16:07:12.258627 31778 net.cpp:124] Setting up conv3
I0630 16:07:12.264668 31778 net.cpp:131] Top shape: 128 384 13 13 (8306688)
I0630 16:07:12.264717 31778 net.cpp:139] Memory required for data: 903067648
I0630 16:07:12.264744 31778 layer_factory.hpp:77] Creating layer relu3
I0630 16:07:12.264767 31778 net.cpp:86] Creating Layer relu3
I0630 16:07:12.264783 31778 net.cpp:408] relu3 <- conv3
I0630 16:07:12.264801 31778 net.cpp:369] relu3 -> conv3 (in-place)
I0630 16:07:12.264820 31778 net.cpp:124] Setting up relu3
I0630 16:07:12.264837 31778 net.cpp:131] Top shape: 128 384 13 13 (8306688)
I0630 16:07:12.264849 31778 net.cpp:139] Memory required for data: 936294400
I0630 16:07:12.264863 31778 layer_factory.hpp:77] Creating layer conv4
I0630 16:07:12.264884 31778 net.cpp:86] Creating Layer conv4
I0630 16:07:12.264900 31778 net.cpp:408] conv4 <- conv3
I0630 16:07:12.264917 31778 net.cpp:382] conv4 -> conv4
I0630 16:07:12.270900 31778 net.cpp:124] Setting up conv4
I0630 16:07:12.280618 31778 net.cpp:131] Top shape: 128 384 13 13 (8306688)
I0630 16:07:12.280656 31778 net.cpp:139] Memory required for data: 969521152
I0630 16:07:12.280678 31778 layer_factory.hpp:77] Creating layer relu4
I0630 16:07:12.280699 31778 net.cpp:86] Creating Layer relu4
I0630 16:07:12.280722 31778 net.cpp:408] relu4 <- conv4
I0630 16:07:12.280740 31778 net.cpp:369] relu4 -> conv4 (in-place)
I0630 16:07:12.280758 31778 net.cpp:124] Setting up relu4
I0630 16:07:12.280781 31778 net.cpp:131] Top shape: 128 384 13 13 (8306688)
I0630 16:07:12.280795 31778 net.cpp:139] Memory required for data: 1002747904
I0630 16:07:12.280808 31778 layer_factory.hpp:77] Creating layer conv5
I0630 16:07:12.280828 31778 net.cpp:86] Creating Layer conv5
I0630 16:07:12.280843 31778 net.cpp:408] conv5 <- conv4
I0630 16:07:12.280858 31778 net.cpp:382] conv5 -> conv5
I0630 16:07:12.284842 31778 net.cpp:124] Setting up conv5
I0630 16:07:12.284863 31778 net.cpp:131] Top shape: 128 256 13 13 (5537792)
I0630 16:07:12.284876 31778 net.cpp:139] Memory required for data: 1024899072
I0630 16:07:12.284894 31778 layer_factory.hpp:77] Creating layer relu5
I0630 16:07:12.284909 31778 net.cpp:86] Creating Layer relu5
I0630 16:07:12.284924 31778 net.cpp:408] relu5 <- conv5
I0630 16:07:12.284938 31778 net.cpp:369] relu5 -> conv5 (in-place)
I0630 16:07:12.284955 31778 net.cpp:124] Setting up relu5
I0630 16:07:12.284968 31778 net.cpp:131] Top shape: 128 256 13 13 (5537792)
I0630 16:07:12.284981 31778 net.cpp:139] Memory required for data: 1047050240
I0630 16:07:12.284993 31778 layer_factory.hpp:77] Creating layer pool5
I0630 16:07:12.285009 31778 net.cpp:86] Creating Layer pool5
I0630 16:07:12.285022 31778 net.cpp:408] pool5 <- conv5
I0630 16:07:12.285037 31778 net.cpp:382] pool5 -> pool5
I0630 16:07:12.285055 31778 net.cpp:124] Setting up pool5
I0630 16:07:12.285070 31778 net.cpp:131] Top shape: 128 256 6 6 (1179648)
I0630 16:07:12.285082 31778 net.cpp:139] Memory required for data: 1051768832
I0630 16:07:12.285095 31778 layer_factory.hpp:77] Creating layer fc6
I0630 16:07:12.285115 31778 net.cpp:86] Creating Layer fc6
I0630 16:07:12.285128 31778 net.cpp:408] fc6 <- pool5
I0630 16:07:12.285143 31778 net.cpp:382] fc6 -> fc6
I0630 16:07:12.390384 31784 data_layer.cpp:73] Restarting data prefetching from start.
I0630 16:07:12.486217 31784 data_layer.cpp:73] Restarting data prefetching from start.
I0630 16:07:12.629113 31778 net.cpp:124] Setting up fc6
I0630 16:07:12.629135 31778 net.cpp:131] Top shape: 128 4096 (524288)
I0630 16:07:12.629138 31778 net.cpp:139] Memory required for data: 1053865984
I0630 16:07:12.629148 31778 layer_factory.hpp:77] Creating layer relu6
I0630 16:07:12.629156 31778 net.cpp:86] Creating Layer relu6
I0630 16:07:12.629169 31778 net.cpp:408] relu6 <- fc6
I0630 16:07:12.629175 31778 net.cpp:369] relu6 -> fc6 (in-place)
I0630 16:07:12.629199 31778 net.cpp:124] Setting up relu6
I0630 16:07:12.629207 31778 net.cpp:131] Top shape: 128 4096 (524288)
I0630 16:07:12.629209 31778 net.cpp:139] Memory required for data: 1055963136
I0630 16:07:12.629211 31778 layer_factory.hpp:77] Creating layer drop6
I0630 16:07:12.629217 31778 net.cpp:86] Creating Layer drop6
I0630 16:07:12.629220 31778 net.cpp:408] drop6 <- fc6
I0630 16:07:12.629223 31778 net.cpp:369] drop6 -> fc6 (in-place)
I0630 16:07:12.629233 31778 net.cpp:124] Setting up drop6
I0630 16:07:12.629236 31778 net.cpp:131] Top shape: 128 4096 (524288)
I0630 16:07:12.629238 31778 net.cpp:139] Memory required for data: 1058060288
I0630 16:07:12.629241 31778 layer_factory.hpp:77] Creating layer fc7
I0630 16:07:12.629247 31778 net.cpp:86] Creating Layer fc7
I0630 16:07:12.629251 31778 net.cpp:408] fc7 <- fc6
I0630 16:07:12.629254 31778 net.cpp:382] fc7 -> fc7
I0630 16:07:12.774395 31778 net.cpp:124] Setting up fc7
I0630 16:07:12.774413 31778 net.cpp:131] Top shape: 128 4096 (524288)
I0630 16:07:12.774415 31778 net.cpp:139] Memory required for data: 1060157440
I0630 16:07:12.774423 31778 layer_factory.hpp:77] Creating layer relu7
I0630 16:07:12.774432 31778 net.cpp:86] Creating Layer relu7
I0630 16:07:12.774446 31778 net.cpp:408] relu7 <- fc7
I0630 16:07:12.774451 31778 net.cpp:369] relu7 -> fc7 (in-place)
I0630 16:07:12.774457 31778 net.cpp:124] Setting up relu7
I0630 16:07:12.774471 31778 net.cpp:131] Top shape: 128 4096 (524288)
I0630 16:07:12.774473 31778 net.cpp:139] Memory required for data: 1062254592
I0630 16:07:12.774475 31778 layer_factory.hpp:77] Creating layer drop7
I0630 16:07:12.774480 31778 net.cpp:86] Creating Layer drop7
I0630 16:07:12.774482 31778 net.cpp:408] drop7 <- fc7
I0630 16:07:12.774509 31778 net.cpp:369] drop7 -> fc7 (in-place)
I0630 16:07:12.774526 31778 net.cpp:124] Setting up drop7
I0630 16:07:12.774529 31778 net.cpp:131] Top shape: 128 4096 (524288)
I0630 16:07:12.774531 31778 net.cpp:139] Memory required for data: 1064351744
I0630 16:07:12.774534 31778 layer_factory.hpp:77] Creating layer fc8
I0630 16:07:12.774539 31778 net.cpp:86] Creating Layer fc8
I0630 16:07:12.774541 31778 net.cpp:408] fc8 <- fc7
I0630 16:07:12.774545 31778 net.cpp:382] fc8 -> fc8
I0630 16:07:12.774642 31778 net.cpp:124] Setting up fc8
I0630 16:07:12.774646 31778 net.cpp:131] Top shape: 128 2 (256)
I0630 16:07:12.774648 31778 net.cpp:139] Memory required for data: 1064352768
I0630 16:07:12.774662 31778 layer_factory.hpp:77] Creating layer loss
I0630 16:07:12.774667 31778 net.cpp:86] Creating Layer loss
I0630 16:07:12.774669 31778 net.cpp:408] loss <- fc8
I0630 16:07:12.774682 31778 net.cpp:408] loss <- label
I0630 16:07:12.774688 31778 net.cpp:382] loss -> loss
I0630 16:07:12.774695 31778 layer_factory.hpp:77] Creating layer loss
…
I0630 16:07:12.775168 31778 net.cpp:296] The NetState phase (1) differed from the phase (0) specified by a rule in layer data
I0630 16:07:12.775318 31778 net.cpp:53] Initializing net from parameters: 
name: "AlexNet"
state {
  phase: TEST
}
layer {
  name: "data"
  type: "Data"
  top: "data"
  top: "label"
  include {
    phase: TEST
  }
  transform_param {
    mirror: false
    crop_size: 227
    mean_file: "/home/dell/deep/input/mean.binaryproto"
  }
  data_param {
    source: "/home/dell/deep/input/validation_lmdb"
    batch_size: 32
    backend: LMDB
  }
}
layer {
  name: "conv1"
  type: "Convolution"
  bottom: "data"
  top: "conv1"
  param {
    lr_mult: 1
    decay_mult: 1
  }
  param {
    lr_mult: 2
    decay_mult: 0
  }
  convolution_param {
    num_output: 96
    kernel_size: 11
    stride: 4
    weight_filler {
      type: "gaussian"
      std: 0.01
    }
    bias_filler {
      type: "constant"
      value: 0
    }
  }
}
layer {
  name: "relu1"
  type: "ReLU"
  bottom: "conv1"
  top: "conv1"
}
layer {
  name: "norm1"
  type: "LRN"
  bottom: "conv1"
  top: "norm1"
  lrn_param {
    local_size: 5
    alpha: 0.0001
    beta: 0.75
  }
}
layer {
  name: "pool1"
  type: "Pooling"
  bottom: "norm1"
  top: "pool1"
  pooling_param {
    pool: MAX
    kernel_size: 3
    stride: 2
  }
}
layer {
  name: "conv2"
  type: "Convolution"
  bottom: "pool1"
  top: "conv2"
  param {
    lr_mult: 1
    decay_mult: 1
  }
  param {
    lr_mult: 2
    decay_mult: 0
  }
  convolution_param {
    num_output: 256
    pad: 2
    kernel_size: 5
    group: 2
    weight_filler {
      type: "gaussian"
      std: 0.01
    }
    bias_filler {
      type: "constant"
      value: 0.1
    }
  }
}
layer {
  name: "relu2"
  type: "ReLU"
  bottom: "conv2"
  top: "conv2"
}
layer {
  name: "norm2"
  type: "LRN"
  bottom: "conv2"
  top: "norm2"
  lrn_param {
    local_size: 5
    alpha: 0.0001
    beta: 0.75
  }
}
layer {
  name: "pool2"
  type: "Pooling"
  bottom: "norm2"
  top: "pool2"
  pooling_param {
    pool: MAX
    kernel_size: 3
    stride: 2
  }
}
layer {
  name: "conv3"
  type: "Convolution"
  bottom: "pool2"
  top: "conv3"
  param {
    lr_mult: 1
    decay_mult: 1
  }
  param {
    lr_mult: 2
    decay_mult: 0
  }
  convolution_param {
    num_output: 384
    pad: 1
    kernel_size: 3
    weight_filler {
      type: "gaussian"
      std: 0.01
    }
    bias_filler {
      type: "constant"
      value: 0
    }
  }
}
layer {
  name: "relu3"
  type: "ReLU"
  bottom: "conv3"
  top: "conv3"
}
layer {
  name: "conv4"
  type: "Convolution"
  bottom: "conv3"
  top: "conv4"
  param {
    lr_mult: 1
    decay_mult: 1
  }
  param {
    lr_mult: 2
    decay_mult: 0
  }
  convolution_param {
    num_output: 384
    pad: 1
    kernel_size: 3
    group: 2
    weight_filler {
      type: "gaussian"
      std: 0.01
    }
    bias_filler {
      type: "constant"
      value: 0.1
    }
  }
}
layer {
  name: "relu4"
  type: "ReLU"
  bottom: "conv4"
  top: "conv4"
}
layer {
  name: "conv5"
  type: "Convolution"
  bottom: "conv4"
  top: "conv5"
  param {
    lr_mult: 1
    decay_mult: 1
  }
  param {
    lr_mult: 2
    decay_mult: 0
  }
  convolution_param {
    num_output: 256
    pad: 1
    kernel_size: 3
    group: 2
    weight_filler {
      type: "gaussian"
      std: 0.01
    }
    bias_filler {
      type: "constant"
      value: 0.1
    }
  }
}
layer {
  name: "relu5"
  type: "ReLU"
  bottom: "conv5"
  top: "conv5"
}
layer {
  name: "pool5"
  type: "Pooling"
  bottom: "conv5"
  top: "pool5"
  pooling_param {
    pool: MAX
    kernel_size: 3
    stride: 2
  }
}
layer {
  name: "fc6"
  type: "InnerProduct"
  bottom: "pool5"
  top: "fc6"
  param {
    lr_mult: 1
    decay_mult: 1
  }
  param {
    lr_mult: 2
    decay_mult: 0
  }
  inner_product_param {
    num_output: 4096
    weight_filler {
      type: "gaussian"
      std: 0.005
    }
    bias_filler {
      type: "constant"
      value: 0.1
    }
  }
}
layer {
  name: "relu6"
  type: "ReLU"
  bottom: "fc6"
  top: "fc6"
}
layer {
  name: "drop6"
  type: "Dropout"
  bottom: "fc6"
  top: "fc6"
  dropout_param {
    dropout_ratio: 0.5
  }
}
layer {
  name: "fc7"
  type: "InnerProduct"
  bottom: "fc6"
  top: "fc7"
  param {
    lr_mult: 1
    decay_mult: 1
  }
  param {
    lr_mult: 2
    decay_mult: 0
  }
  inner_product_param {
    num_output: 4096
    weight_filler {
      type: "gaussian"
      std: 0.005
    }
    bias_filler {
      type: "constant"
      value: 0.1
    }
  }
}
layer {
  name: "relu7"
  type: "ReLU"
  bottom: "fc7"
  top: "fc7"
}
layer {
  name: "drop7"
  type: "Dropout"
  bottom: "fc7"
  top: "fc7"
  dropout_param {
    dropout_ratio: 0.5
  }
}
layer {
  name: "fc8"
  type: "InnerProduct"
  bottom: "fc7"
  top: "fc8"
  param {
    lr_mult: 1
    decay_mult: 1
  }
  param {
    lr_mult: 2
    decay_mult: 0
  }
  inner_product_param {
    num_output: 2
    weight_filler {
      type: "gaussian"
      std: 0.01
    }
    bias_filler {
      type: "constant"
      value: 0
    }
  }
}
layer {
  name: "accuracy"
  type: "Accuracy"
  bottom: "fc8"
  bottom: "label"
  top: "accuracy"
  include {
    phase: TEST
  }
}
layer {
  name: "loss"
  type: "SoftmaxWithLoss"
  bottom: "fc8"
  bottom: "label"
  top: "loss"
}
I0630 16:07:12.775408 31778 layer_factory.hpp:77] Creating layer data
I0630 16:07:12.775465 31778 db_lmdb.cpp:35] Opened lmdb /home/dell/deep/input/validation_lmdb
I0630 16:07:12.775475 31778 net.cpp:86] Creating Layer data
I0630 16:07:12.775481 31778 net.cpp:382] data -> data
I0630 16:07:12.775490 31778 net.cpp:382] data -> label
I0630 16:07:12.775496 31778 data_transformer.cpp:25] Loading mean file from: /home/dell/deep/input/mean.binaryproto
I0630 16:07:12.776612 31778 data_layer.cpp:45] output data size: 32,3,227,227
I0630 16:07:12.776702 31778 net.cpp:124] Setting up data
I0630 16:07:12.776708 31778 net.cpp:131] Top shape: 32 3 227 227 (4946784)
I0630 16:07:12.776711 31778 net.cpp:131] Top shape: 32 (32)
I0630 16:07:12.776729 31778 net.cpp:139] Memory required for data: 19787264
I0630 16:07:12.776732 31778 layer_factory.hpp:77] Creating layer label_data_1_split
I0630 16:07:12.776738 31778 net.cpp:86] Creating Layer label_data_1_split
I0630 16:07:12.776741 31778 net.cpp:408] label_data_1_split <- label
I0630 16:07:12.776756 31778 net.cpp:382] label_data_1_split -> label_data_1_split_0
I0630 16:07:12.776760 31778 net.cpp:382] label_data_1_split -> label_data_1_split_1
I0630 16:07:12.776783 31778 net.cpp:124] Setting up label_data_1_split
I0630 16:07:12.776789 31778 net.cpp:131] Top shape: 32 (32)
I0630 16:07:12.776791 31778 net.cpp:131] Top shape: 32 (32)
I0630 16:07:12.776793 31778 net.cpp:139] Memory required for data: 19787520
I0630 16:07:12.776796 31778 layer_factory.hpp:77] Creating layer conv1
I0630 16:07:12.776803 31778 net.cpp:86] Creating Layer conv1
I0630 16:07:12.776806 31778 net.cpp:408] conv1 <- data
I0630 16:07:12.776811 31778 net.cpp:382] conv1 -> conv1
I0630 16:07:12.777114 31778 net.cpp:124] Setting up conv1
I0630 16:07:12.777120 31778 net.cpp:131] Top shape: 32 96 55 55 (9292800)
I0630 16:07:12.777122 31778 net.cpp:139] Memory required for data: 56958720
I0630 16:07:12.777129 31778 layer_factory.hpp:77] Creating layer relu1
I0630 16:07:12.777133 31778 net.cpp:86] Creating Layer relu1
I0630 16:07:12.777135 31778 net.cpp:408] relu1 <- conv1
I0630 16:07:12.777139 31778 net.cpp:369] relu1 -> conv1 (in-place)
I0630 16:07:12.777143 31778 net.cpp:124] Setting up relu1
I0630 16:07:12.777146 31778 net.cpp:131] Top shape: 32 96 55 55 (9292800)
I0630 16:07:12.777148 31778 net.cpp:139] Memory required for data: 94129920
I0630 16:07:12.777150 31778 layer_factory.hpp:77] Creating layer norm1
I0630 16:07:12.777154 31778 net.cpp:86] Creating Layer norm1
I0630 16:07:12.777158 31778 net.cpp:408] norm1 <- conv1
I0630 16:07:12.777160 31778 net.cpp:382] norm1 -> norm1
I0630 16:07:12.777165 31778 net.cpp:124] Setting up norm1
I0630 16:07:12.777181 31778 net.cpp:131] Top shape: 32 96 55 55 (9292800)
I0630 16:07:12.777184 31778 net.cpp:139] Memory required for data: 131301120
I0630 16:07:12.777186 31778 layer_factory.hpp:77] Creating layer pool1
I0630 16:07:12.777190 31778 net.cpp:86] Creating Layer pool1
I0630 16:07:12.777194 31778 net.cpp:408] pool1 <- norm1
I0630 16:07:12.777196 31778 net.cpp:382] pool1 -> pool1
I0630 16:07:12.777204 31778 net.cpp:124] Setting up pool1
I0630 16:07:12.777207 31778 net.cpp:131] Top shape: 32 96 27 27 (2239488)
I0630 16:07:12.777210 31778 net.cpp:139] Memory required for data: 140259072
I0630 16:07:12.777212 31778 layer_factory.hpp:77] Creating layer conv2
I0630 16:07:12.777217 31778 net.cpp:86] Creating Layer conv2
I0630 16:07:12.777220 31778 net.cpp:408] conv2 <- pool1
I0630 16:07:12.777223 31778 net.cpp:382] conv2 -> conv2
I0630 16:07:12.779840 31778 net.cpp:124] Setting up conv2
I0630 16:07:12.779851 31778 net.cpp:131] Top shape: 32 256 27 27 (5971968)
I0630 16:07:12.779870 31778 net.cpp:139] Memory required for data: 164146944
I0630 16:07:12.779881 31778 layer_factory.hpp:77] Creating layer relu2
I0630 16:07:12.779902 31778 net.cpp:86] Creating Layer relu2
I0630 16:07:12.779907 31778 net.cpp:408] relu2 <- conv2
I0630 16:07:12.779912 31778 net.cpp:369] relu2 -> conv2 (in-place)
I0630 16:07:12.779918 31778 net.cpp:124] Setting up relu2
I0630 16:07:12.779922 31778 net.cpp:131] Top shape: 32 256 27 27 (5971968)
I0630 16:07:12.779924 31778 net.cpp:139] Memory required for data: 188034816
I0630 16:07:12.779927 31778 layer_factory.hpp:77] Creating layer norm2
I0630 16:07:12.779934 31778 net.cpp:86] Creating Layer norm2
I0630 16:07:12.779937 31778 net.cpp:408] norm2 <- conv2
I0630 16:07:12.779942 31778 net.cpp:382] norm2 -> norm2
I0630 16:07:12.779948 31778 net.cpp:124] Setting up norm2
I0630 16:07:12.779953 31778 net.cpp:131] Top shape: 32 256 27 27 (5971968)
I0630 16:07:12.779954 31778 net.cpp:139] Memory required for data: 211922688
I0630 16:07:12.779956 31778 layer_factory.hpp:77] Creating layer pool2
I0630 16:07:12.779961 31778 net.cpp:86] Creating Layer pool2
I0630 16:07:12.779963 31778 net.cpp:408] pool2 <- norm2
I0630 16:07:12.779968 31778 net.cpp:382] pool2 -> pool2
I0630 16:07:12.779973 31778 net.cpp:124] Setting up pool2
I0630 16:07:12.779976 31778 net.cpp:131] Top shape: 32 256 13 13 (1384448)
I0630 16:07:12.779978 31778 net.cpp:139] Memory required for data: 217460480
I0630 16:07:12.779980 31778 layer_factory.hpp:77] Creating layer conv3
I0630 16:07:12.779991 31778 net.cpp:86] Creating Layer conv3
I0630 16:07:12.779995 31778 net.cpp:408] conv3 <- pool2
I0630 16:07:12.779999 31778 net.cpp:382] conv3 -> conv3
I0630 16:07:12.788244 31778 net.cpp:124] Setting up conv3
I0630 16:07:12.788270 31778 net.cpp:131] Top shape: 32 384 13 13 (2076672)
I0630 16:07:12.788275 31778 net.cpp:139] Memory required for data: 225767168
I0630 16:07:12.788283 31778 layer_factory.hpp:77] Creating layer relu3
I0630 16:07:12.788291 31778 net.cpp:86] Creating Layer relu3
I0630 16:07:12.788296 31778 net.cpp:408] relu3 <- conv3
I0630 16:07:12.788301 31778 net.cpp:369] relu3 -> conv3 (in-place)
I0630 16:07:12.788323 31778 net.cpp:124] Setting up relu3
I0630 16:07:12.788329 31778 net.cpp:131] Top shape: 32 384 13 13 (2076672)
I0630 16:07:12.788331 31778 net.cpp:139] Memory required for data: 234073856
I0630 16:07:12.788333 31778 layer_factory.hpp:77] Creating layer conv4
I0630 16:07:12.788343 31778 net.cpp:86] Creating Layer conv4
I0630 16:07:12.788347 31778 net.cpp:408] conv4 <- conv3
I0630 16:07:12.788352 31778 net.cpp:382] conv4 -> conv4
I0630 16:07:12.794189 31778 net.cpp:124] Setting up conv4
I0630 16:07:12.794211 31778 net.cpp:131] Top shape: 32 384 13 13 (2076672)
I0630 16:07:12.794214 31778 net.cpp:139] Memory required for data: 242380544
I0630 16:07:12.794220 31778 layer_factory.hpp:77] Creating layer relu4
I0630 16:07:12.794226 31778 net.cpp:86] Creating Layer relu4
I0630 16:07:12.794239 31778 net.cpp:408] relu4 <- conv4
I0630 16:07:12.794243 31778 net.cpp:369] relu4 -> conv4 (in-place)
I0630 16:07:12.794248 31778 net.cpp:124] Setting up relu4
I0630 16:07:12.794251 31778 net.cpp:131] Top shape: 32 384 13 13 (2076672)
I0630 16:07:12.794253 31778 net.cpp:139] Memory required for data: 250687232
I0630 16:07:12.794255 31778 layer_factory.hpp:77] Creating layer conv5
I0630 16:07:12.794263 31778 net.cpp:86] Creating Layer conv5
I0630 16:07:12.794279 31778 net.cpp:408] conv5 <- conv4
I0630 16:07:12.794286 31778 net.cpp:382] conv5 -> conv5
I0630 16:07:12.798197 31778 net.cpp:124] Setting up conv5
I0630 16:07:12.798205 31778 net.cpp:131] Top shape: 32 256 13 13 (1384448)
I0630 16:07:12.798218 31778 net.cpp:139] Memory required for data: 256225024
I0630 16:07:12.798226 31778 layer_factory.hpp:77] Creating layer relu5
I0630 16:07:12.798240 31778 net.cpp:86] Creating Layer relu5
I0630 16:07:12.798243 31778 net.cpp:408] relu5 <- conv5
I0630 16:07:12.798247 31778 net.cpp:369] relu5 -> conv5 (in-place)
I0630 16:07:12.798251 31778 net.cpp:124] Setting up relu5
I0630 16:07:12.798269 31778 net.cpp:131] Top shape: 32 256 13 13 (1384448)
I0630 16:07:12.798271 31778 net.cpp:139] Memory required for data: 261762816
I0630 16:07:12.798274 31778 layer_factory.hpp:77] Creating layer pool5
I0630 16:07:12.798281 31778 net.cpp:86] Creating Layer pool5
I0630 16:07:12.798283 31778 net.cpp:408] pool5 <- conv5
I0630 16:07:12.798287 31778 net.cpp:382] pool5 -> pool5
I0630 16:07:12.798305 31778 net.cpp:124] Setting up pool5
I0630 16:07:12.798308 31778 net.cpp:131] Top shape: 32 256 6 6 (294912)
I0630 16:07:12.798321 31778 net.cpp:139] Memory required for data: 262942464
I0630 16:07:12.798322 31778 layer_factory.hpp:77] Creating layer fc6
I0630 16:07:12.798337 31778 net.cpp:86] Creating Layer fc6
I0630 16:07:12.798341 31778 net.cpp:408] fc6 <- pool5
I0630 16:07:12.798344 31778 net.cpp:382] fc6 -> fc6
I0630 16:07:12.809803 31785 data_layer.cpp:73] Restarting data prefetching from start.
I0630 16:07:13.124831 31778 net.cpp:124] Setting up fc6
I0630 16:07:13.124860 31778 net.cpp:131] Top shape: 32 4096 (131072)
I0630 16:07:13.124862 31778 net.cpp:139] Memory required for data: 263466752
I0630 16:07:13.124871 31778 layer_factory.hpp:77] Creating layer relu6
I0630 16:07:13.124889 31778 net.cpp:86] Creating Layer relu6
I0630 16:07:13.124893 31778 net.cpp:408] relu6 <- fc6
I0630 16:07:13.124900 31778 net.cpp:369] relu6 -> fc6 (in-place)
I0630 16:07:13.124907 31778 net.cpp:124] Setting up relu6
I0630 16:07:13.124917 31778 net.cpp:131] Top shape: 32 4096 (131072)
I0630 16:07:13.124918 31778 net.cpp:139] Memory required for data: 263991040
I0630 16:07:13.124920 31778 layer_factory.hpp:77] Creating layer drop6
I0630 16:07:13.124925 31778 net.cpp:86] Creating Layer drop6
I0630 16:07:13.124928 31778 net.cpp:408] drop6 <- fc6
I0630 16:07:13.124933 31778 net.cpp:369] drop6 -> fc6 (in-place)
I0630 16:07:13.124938 31778 net.cpp:124] Setting up drop6
I0630 16:07:13.124943 31778 net.cpp:131] Top shape: 32 4096 (131072)
I0630 16:07:13.124945 31778 net.cpp:139] Memory required for data: 264515328
I0630 16:07:13.124948 31778 layer_factory.hpp:77] Creating layer fc7
I0630 16:07:13.124953 31778 net.cpp:86] Creating Layer fc7
I0630 16:07:13.124955 31778 net.cpp:408] fc7 <- fc6
I0630 16:07:13.124961 31778 net.cpp:382] fc7 -> fc7
I0630 16:07:13.269546 31778 net.cpp:124] Setting up fc7
I0630 16:07:13.269562 31778 net.cpp:131] Top shape: 32 4096 (131072)
I0630 16:07:13.269565 31778 net.cpp:139] Memory required for data: 265039616
I0630 16:07:13.269573 31778 layer_factory.hpp:77] Creating layer relu7
I0630 16:07:13.269582 31778 net.cpp:86] Creating Layer relu7
I0630 16:07:13.269585 31778 net.cpp:408] relu7 <- fc7
I0630 16:07:13.269601 31778 net.cpp:369] relu7 -> fc7 (in-place)
I0630 16:07:13.269608 31778 net.cpp:124] Setting up relu7
I0630 16:07:13.269625 31778 net.cpp:131] Top shape: 32 4096 (131072)
I0630 16:07:13.269628 31778 net.cpp:139] Memory required for data: 265563904
I0630 16:07:13.269630 31778 layer_factory.hpp:77] Creating layer drop7
I0630 16:07:13.269645 31778 net.cpp:86] Creating Layer drop7
I0630 16:07:13.269661 31778 net.cpp:408] drop7 <- fc7
I0630 16:07:13.269665 31778 net.cpp:369] drop7 -> fc7 (in-place)
I0630 16:07:13.269670 31778 net.cpp:124] Setting up drop7
I0630 16:07:13.269675 31778 net.cpp:131] Top shape: 32 4096 (131072)
I0630 16:07:13.269676 31778 net.cpp:139] Memory required for data: 266088192
I0630 16:07:13.269678 31778 layer_factory.hpp:77] Creating layer fc8
I0630 16:07:13.269685 31778 net.cpp:86] Creating Layer fc8
I0630 16:07:13.269686 31778 net.cpp:408] fc8 <- fc7
I0630 16:07:13.269691 31778 net.cpp:382] fc8 -> fc8
I0630 16:07:13.269789 31778 net.cpp:124] Setting up fc8
I0630 16:07:13.269794 31778 net.cpp:131] Top shape: 32 2 (64)
I0630 16:07:13.269796 31778 net.cpp:139] Memory required for data: 266088448
I0630 16:07:13.269800 31778 layer_factory.hpp:77] Creating layer fc8_fc8_0_split
I0630 16:07:13.269805 31778 net.cpp:86] Creating Layer fc8_fc8_0_split
I0630 16:07:13.269807 31778 net.cpp:408] fc8_fc8_0_split <- fc8
I0630 16:07:13.269811 31778 net.cpp:382] fc8_fc8_0_split -> fc8_fc8_0_split_0
I0630 16:07:13.269851 31778 net.cpp:382] fc8_fc8_0_split -> fc8_fc8_0_split_1
I0630 16:07:13.269870 31778 net.cpp:124] Setting up fc8_fc8_0_split
I0630 16:07:13.269873 31778 net.cpp:131] Top shape: 32 2 (64)
I0630 16:07:13.269876 31778 net.cpp:131] Top shape: 32 2 (64)
I0630 16:07:13.269877 31778 net.cpp:139] Memory required for data: 266088960
I0630 16:07:13.269889 31778 layer_factory.hpp:77] Creating layer accuracy
I0630 16:07:13.269896 31778 net.cpp:86] Creating Layer accuracy
I0630 16:07:13.269897 31778 net.cpp:408] accuracy <- fc8_fc8_0_split_0
I0630 16:07:13.269901 31778 net.cpp:408] accuracy <- label_data_1_split_0
I0630 16:07:13.269906 31778 net.cpp:382] accuracy -> accuracy
…
